…
      "WARNING:tensorflow:From /usr/local/lib/python3.6/dist-packages/keras/backend/tensorflow_backend.py:3733: calling dropout (from tensorflow.python.ops.nn_ops) with keep_prob is deprecated and will be removed in a future version.\n",
      "Instructions for updating:\n",
      "Please use `rate` instead of `keep_prob`. Rate should be set to `rate = 1 - keep_prob`.\n",
      "Model: \"sequential_1\"\n",
      "_________________________________________________________________\n",
      "Layer (type)                 Output Shape              Param #   \n",
      "=================================================================\n",
      "conv2d_1 (Conv2D)            (None, 100, 100, 16)      208       \n",
      "_________________________________________________________________\n",
      "activation_1 (Activation)    (None, 100, 100, 16)      0         \n",
      "_________________________________________________________________\n",
      "max_pooling2d_1 (MaxPooling2 (None, 50, 50, 16)        0         \n",
      "_________________________________________________________________\n",
      "conv2d_2 (Conv2D)            (None, 50, 50, 32)        2080      \n",
      "_________________________________________________________________\n",
      "max_pooling2d_2 (MaxPooling2 (None, 25, 25, 32)        0         \n",
      "_________________________________________________________________\n",
      "conv2d_3 (Conv2D)            (None, 25, 25, 64)        8256      \n",
      "_________________________________________________________________\n",
      "max_pooling2d_3 (MaxPooling2 (None, 12, 12, 64)        0         \n",
      "_________________________________________________________________\n",
      "conv2d_4 (Conv2D)            (None, 12, 12, 128)       32896     \n",
      "_________________________________________________________________\n",
      "max_pooling2d_4 (MaxPooling2 (None, 6, 6, 128)         0         \n",
      "_________________________________________________________________\n",
      "dropout_1 (Dropout)          (None, 6, 6, 128)         0         \n",
      "_________________________________________________________________\n",
      "flatten_1 (Flatten)          (None, 4608)              0         \n",
      "_________________________________________________________________\n",
      "dense_1 (Dense)              (None, 150)               691350    \n",
      "_________________________________________________________________\n",
      "activation_2 (Activation)    (None, 150)               0         \n",
      "_________________________________________________________________\n",
      "dropout_2 (Dropout)          (None, 150)               0         \n",
      "_________________________________________________________________\n",
      "dense_2 (Dense)              (None, 120)               18120     \n",
      "=================================================================\n",
      "Total params: 752,910\n",
      "Trainable params: 752,910\n",
      "Non-trainable params: 0\n",
      "_________________________________________________________________\n"
     ]
    }
   ],
   "source": [

    "\n",
    "model = Sequential()\n",
    "\n",
 
    "model.add(Conv2D(filters = 16, kernel_size = 2,input_shape=(100,100,3),padding='same'))\n",
…
